Namespace(batch_size=64, input_size=224, learning_rate=0.0003, n_epochs=300, patience=300)
One ./food11/training sample ./food11/training/0_0.jpg
One ./food11/validation sample ./food11/validation/0_0.jpg
My_Classifier(
  (model): EfficientNet(
    (features): Sequential(
      (0): ConvNormActivation(
        (0): Conv2d(3, 48, kernel_size=(3, 3), stride=(2, 2), padding=(1, 1), bias=False)
        (1): BatchNorm2d(48, eps=1e-05, momentum=0.1, affine=True, track_running_stats=True)
        (2): SiLU(inplace=True)
      )
      (1): Sequential(
        (0): MBConv(
          (block): Sequential(
            (0): ConvNormActivation(
              (0): Conv2d(48, 48, kernel_size=(3, 3), stride=(1, 1), padding=(1, 1), groups=48, bias=False)
              (1): BatchNorm2d(48, eps=1e-05, momentum=0.1, affine=True, track_running_stats=True)
              (2): SiLU(inplace=True)
            )
            (1): SqueezeExcitation(
              (avgpool): AdaptiveAvgPool2d(output_size=1)
              (fc1): Conv2d(48, 12, kernel_size=(1, 1), stride=(1, 1))
              (fc2): Conv2d(12, 48, kernel_size=(1, 1), stride=(1, 1))
              (activation): SiLU(inplace=True)
              (scale_activation): Sigmoid()
            )
            (2): ConvNormActivation(
              (0): Conv2d(48, 24, kernel_size=(1, 1), stride=(1, 1), bias=False)
              (1): BatchNorm2d(24, eps=1e-05, momentum=0.1, affine=True, track_running_stats=True)
            )
          )
          (stochastic_depth): StochasticDepth(p=0.0, mode=row)
        )
        (1): MBConv(
          (block): Sequential(
            (0): ConvNormActivation(
              (0): Conv2d(24, 24, kernel_size=(3, 3), stride=(1, 1), padding=(1, 1), groups=24, bias=False)
              (1): BatchNorm2d(24, eps=1e-05, momentum=0.1, affine=True, track_running_stats=True)
              (2): SiLU(inplace=True)
            )
            (1): SqueezeExcitation(
              (avgpool): AdaptiveAvgPool2d(output_size=1)
              (fc1): Conv2d(24, 6, kernel_size=(1, 1), stride=(1, 1))
              (fc2): Conv2d(6, 24, kernel_size=(1, 1), stride=(1, 1))
              (activation): SiLU(inplace=True)
              (scale_activation): Sigmoid()
            )
            (2): ConvNormActivation(
              (0): Conv2d(24, 24, kernel_size=(1, 1), stride=(1, 1), bias=False)
              (1): BatchNorm2d(24, eps=1e-05, momentum=0.1, affine=True, track_running_stats=True)
            )
          )
          (stochastic_depth): StochasticDepth(p=0.00625, mode=row)
        )
      )
      (2): Sequential(
        (0): MBConv(
          (block): Sequential(
            (0): ConvNormActivation(
              (0): Conv2d(24, 144, kernel_size=(1, 1), stride=(1, 1), bias=False)
              (1): BatchNorm2d(144, eps=1e-05, momentum=0.1, affine=True, track_running_stats=True)
              (2): SiLU(inplace=True)
            )
            (1): ConvNormActivation(
              (0): Conv2d(144, 144, kernel_size=(3, 3), stride=(2, 2), padding=(1, 1), groups=144, bias=False)
              (1): BatchNorm2d(144, eps=1e-05, momentum=0.1, affine=True, track_running_stats=True)
              (2): SiLU(inplace=True)
            )
            (2): SqueezeExcitation(
              (avgpool): AdaptiveAvgPool2d(output_size=1)
              (fc1): Conv2d(144, 6, kernel_size=(1, 1), stride=(1, 1))
              (fc2): Conv2d(6, 144, kernel_size=(1, 1), stride=(1, 1))
              (activation): SiLU(inplace=True)
              (scale_activation): Sigmoid()
            )
            (3): ConvNormActivation(
              (0): Conv2d(144, 32, kernel_size=(1, 1), stride=(1, 1), bias=False)
              (1): BatchNorm2d(32, eps=1e-05, momentum=0.1, affine=True, track_running_stats=True)
            )
          )
          (stochastic_depth): StochasticDepth(p=0.0125, mode=row)
        )
        (1): MBConv(
          (block): Sequential(
            (0): ConvNormActivation(
              (0): Conv2d(32, 192, kernel_size=(1, 1), stride=(1, 1), bias=False)
              (1): BatchNorm2d(192, eps=1e-05, momentum=0.1, affine=True, track_running_stats=True)
              (2): SiLU(inplace=True)
            )
            (1): ConvNormActivation(
              (0): Conv2d(192, 192, kernel_size=(3, 3), stride=(1, 1), padding=(1, 1), groups=192, bias=False)
              (1): BatchNorm2d(192, eps=1e-05, momentum=0.1, affine=True, track_running_stats=True)
              (2): SiLU(inplace=True)
            )
            (2): SqueezeExcitation(
              (avgpool): AdaptiveAvgPool2d(output_size=1)
              (fc1): Conv2d(192, 8, kernel_size=(1, 1), stride=(1, 1))
              (fc2): Conv2d(8, 192, kernel_size=(1, 1), stride=(1, 1))
              (activation): SiLU(inplace=True)
              (scale_activation): Sigmoid()
            )
            (3): ConvNormActivation(
              (0): Conv2d(192, 32, kernel_size=(1, 1), stride=(1, 1), bias=False)
              (1): BatchNorm2d(32, eps=1e-05, momentum=0.1, affine=True, track_running_stats=True)
            )
          )
          (stochastic_depth): StochasticDepth(p=0.018750000000000003, mode=row)
        )
        (2): MBConv(
          (block): Sequential(
            (0): ConvNormActivation(
              (0): Conv2d(32, 192, kernel_size=(1, 1), stride=(1, 1), bias=False)
              (1): BatchNorm2d(192, eps=1e-05, momentum=0.1, affine=True, track_running_stats=True)
              (2): SiLU(inplace=True)
            )
            (1): ConvNormActivation(
              (0): Conv2d(192, 192, kernel_size=(3, 3), stride=(1, 1), padding=(1, 1), groups=192, bias=False)
              (1): BatchNorm2d(192, eps=1e-05, momentum=0.1, affine=True, track_running_stats=True)
              (2): SiLU(inplace=True)
            )
            (2): SqueezeExcitation(
              (avgpool): AdaptiveAvgPool2d(output_size=1)
              (fc1): Conv2d(192, 8, kernel_size=(1, 1), stride=(1, 1))
              (fc2): Conv2d(8, 192, kernel_size=(1, 1), stride=(1, 1))
              (activation): SiLU(inplace=True)
              (scale_activation): Sigmoid()
            )
            (3): ConvNormActivation(
              (0): Conv2d(192, 32, kernel_size=(1, 1), stride=(1, 1), bias=False)
              (1): BatchNorm2d(32, eps=1e-05, momentum=0.1, affine=True, track_running_stats=True)
            )
          )
          (stochastic_depth): StochasticDepth(p=0.025, mode=row)
        )
        (3): MBConv(
          (block): Sequential(
            (0): ConvNormActivation(
              (0): Conv2d(32, 192, kernel_size=(1, 1), stride=(1, 1), bias=False)
              (1): BatchNorm2d(192, eps=1e-05, momentum=0.1, affine=True, track_running_stats=True)
              (2): SiLU(inplace=True)
            )
            (1): ConvNormActivation(
              (0): Conv2d(192, 192, kernel_size=(3, 3), stride=(1, 1), padding=(1, 1), groups=192, bias=False)
              (1): BatchNorm2d(192, eps=1e-05, momentum=0.1, affine=True, track_running_stats=True)
              (2): SiLU(inplace=True)
            )
            (2): SqueezeExcitation(
              (avgpool): AdaptiveAvgPool2d(output_size=1)
              (fc1): Conv2d(192, 8, kernel_size=(1, 1), stride=(1, 1))
              (fc2): Conv2d(8, 192, kernel_size=(1, 1), stride=(1, 1))
              (activation): SiLU(inplace=True)
              (scale_activation): Sigmoid()
            )
            (3): ConvNormActivation(
              (0): Conv2d(192, 32, kernel_size=(1, 1), stride=(1, 1), bias=False)
              (1): BatchNorm2d(32, eps=1e-05, momentum=0.1, affine=True, track_running_stats=True)
            )
          )
          (stochastic_depth): StochasticDepth(p=0.03125, mode=row)
        )
      )
      (3): Sequential(
        (0): MBConv(
          (block): Sequential(
            (0): ConvNormActivation(
              (0): Conv2d(32, 192, kernel_size=(1, 1), stride=(1, 1), bias=False)
              (1): BatchNorm2d(192, eps=1e-05, momentum=0.1, affine=True, track_running_stats=True)
              (2): SiLU(inplace=True)
            )
            (1): ConvNormActivation(
              (0): Conv2d(192, 192, kernel_size=(5, 5), stride=(2, 2), padding=(2, 2), groups=192, bias=False)
              (1): BatchNorm2d(192, eps=1e-05, momentum=0.1, affine=True, track_running_stats=True)
              (2): SiLU(inplace=True)
            )
            (2): SqueezeExcitation(
              (avgpool): AdaptiveAvgPool2d(output_size=1)
              (fc1): Conv2d(192, 8, kernel_size=(1, 1), stride=(1, 1))
              (fc2): Conv2d(8, 192, kernel_size=(1, 1), stride=(1, 1))
              (activation): SiLU(inplace=True)
              (scale_activation): Sigmoid()
            )
            (3): ConvNormActivation(
              (0): Conv2d(192, 56, kernel_size=(1, 1), stride=(1, 1), bias=False)
              (1): BatchNorm2d(56, eps=1e-05, momentum=0.1, affine=True, track_running_stats=True)
            )
          )
          (stochastic_depth): StochasticDepth(p=0.037500000000000006, mode=row)
        )
        (1): MBConv(
          (block): Sequential(
            (0): ConvNormActivation(
              (0): Conv2d(56, 336, kernel_size=(1, 1), stride=(1, 1), bias=False)
              (1): BatchNorm2d(336, eps=1e-05, momentum=0.1, affine=True, track_running_stats=True)
              (2): SiLU(inplace=True)
            )
            (1): ConvNormActivation(
              (0): Conv2d(336, 336, kernel_size=(5, 5), stride=(1, 1), padding=(2, 2), groups=336, bias=False)
              (1): BatchNorm2d(336, eps=1e-05, momentum=0.1, affine=True, track_running_stats=True)
              (2): SiLU(inplace=True)
            )
            (2): SqueezeExcitation(
              (avgpool): AdaptiveAvgPool2d(output_size=1)
              (fc1): Conv2d(336, 14, kernel_size=(1, 1), stride=(1, 1))
              (fc2): Conv2d(14, 336, kernel_size=(1, 1), stride=(1, 1))
              (activation): SiLU(inplace=True)
              (scale_activation): Sigmoid()
            )
            (3): ConvNormActivation(
              (0): Conv2d(336, 56, kernel_size=(1, 1), stride=(1, 1), bias=False)
              (1): BatchNorm2d(56, eps=1e-05, momentum=0.1, affine=True, track_running_stats=True)
            )
          )
          (stochastic_depth): StochasticDepth(p=0.043750000000000004, mode=row)
        )
        (2): MBConv(
          (block): Sequential(
            (0): ConvNormActivation(
              (0): Conv2d(56, 336, kernel_size=(1, 1), stride=(1, 1), bias=False)
              (1): BatchNorm2d(336, eps=1e-05, momentum=0.1, affine=True, track_running_stats=True)
              (2): SiLU(inplace=True)
            )
            (1): ConvNormActivation(
              (0): Conv2d(336, 336, kernel_size=(5, 5), stride=(1, 1), padding=(2, 2), groups=336, bias=False)
              (1): BatchNorm2d(336, eps=1e-05, momentum=0.1, affine=True, track_running_stats=True)
              (2): SiLU(inplace=True)
            )
            (2): SqueezeExcitation(
              (avgpool): AdaptiveAvgPool2d(output_size=1)
              (fc1): Conv2d(336, 14, kernel_size=(1, 1), stride=(1, 1))
              (fc2): Conv2d(14, 336, kernel_size=(1, 1), stride=(1, 1))
              (activation): SiLU(inplace=True)
              (scale_activation): Sigmoid()
            )
            (3): ConvNormActivation(
              (0): Conv2d(336, 56, kernel_size=(1, 1), stride=(1, 1), bias=False)
              (1): BatchNorm2d(56, eps=1e-05, momentum=0.1, affine=True, track_running_stats=True)
            )
          )
          (stochastic_depth): StochasticDepth(p=0.05, mode=row)
        )
        (3): MBConv(
          (block): Sequential(
            (0): ConvNormActivation(
              (0): Conv2d(56, 336, kernel_size=(1, 1), stride=(1, 1), bias=False)
              (1): BatchNorm2d(336, eps=1e-05, momentum=0.1, affine=True, track_running_stats=True)
              (2): SiLU(inplace=True)
            )
            (1): ConvNormActivation(
              (0): Conv2d(336, 336, kernel_size=(5, 5), stride=(1, 1), padding=(2, 2), groups=336, bias=False)
              (1): BatchNorm2d(336, eps=1e-05, momentum=0.1, affine=True, track_running_stats=True)
              (2): SiLU(inplace=True)
            )
            (2): SqueezeExcitation(
              (avgpool): AdaptiveAvgPool2d(output_size=1)
              (fc1): Conv2d(336, 14, kernel_size=(1, 1), stride=(1, 1))
              (fc2): Conv2d(14, 336, kernel_size=(1, 1), stride=(1, 1))
              (activation): SiLU(inplace=True)
              (scale_activation): Sigmoid()
            )
            (3): ConvNormActivation(
              (0): Conv2d(336, 56, kernel_size=(1, 1), stride=(1, 1), bias=False)
              (1): BatchNorm2d(56, eps=1e-05, momentum=0.1, affine=True, track_running_stats=True)
            )
          )
          (stochastic_depth): StochasticDepth(p=0.05625, mode=row)
        )
      )
      (4): Sequential(
        (0): MBConv(
          (block): Sequential(
            (0): ConvNormActivation(
              (0): Conv2d(56, 336, kernel_size=(1, 1), stride=(1, 1), bias=False)
              (1): BatchNorm2d(336, eps=1e-05, momentum=0.1, affine=True, track_running_stats=True)
              (2): SiLU(inplace=True)
            )
            (1): ConvNormActivation(
              (0): Conv2d(336, 336, kernel_size=(3, 3), stride=(2, 2), padding=(1, 1), groups=336, bias=False)
              (1): BatchNorm2d(336, eps=1e-05, momentum=0.1, affine=True, track_running_stats=True)
              (2): SiLU(inplace=True)
            )
            (2): SqueezeExcitation(
              (avgpool): AdaptiveAvgPool2d(output_size=1)
              (fc1): Conv2d(336, 14, kernel_size=(1, 1), stride=(1, 1))
              (fc2): Conv2d(14, 336, kernel_size=(1, 1), stride=(1, 1))
              (activation): SiLU(inplace=True)
              (scale_activation): Sigmoid()
            )
            (3): ConvNormActivation(
              (0): Conv2d(336, 112, kernel_size=(1, 1), stride=(1, 1), bias=False)
              (1): BatchNorm2d(112, eps=1e-05, momentum=0.1, affine=True, track_running_stats=True)
            )
          )
          (stochastic_depth): StochasticDepth(p=0.0625, mode=row)
        )
        (1): MBConv(
          (block): Sequential(
            (0): ConvNormActivation(
              (0): Conv2d(112, 672, kernel_size=(1, 1), stride=(1, 1), bias=False)
              (1): BatchNorm2d(672, eps=1e-05, momentum=0.1, affine=True, track_running_stats=True)
              (2): SiLU(inplace=True)
            )
            (1): ConvNormActivation(
              (0): Conv2d(672, 672, kernel_size=(3, 3), stride=(1, 1), padding=(1, 1), groups=672, bias=False)
              (1): BatchNorm2d(672, eps=1e-05, momentum=0.1, affine=True, track_running_stats=True)
              (2): SiLU(inplace=True)
            )
            (2): SqueezeExcitation(
              (avgpool): AdaptiveAvgPool2d(output_size=1)
              (fc1): Conv2d(672, 28, kernel_size=(1, 1), stride=(1, 1))
              (fc2): Conv2d(28, 672, kernel_size=(1, 1), stride=(1, 1))
              (activation): SiLU(inplace=True)
              (scale_activation): Sigmoid()
            )
            (3): ConvNormActivation(
              (0): Conv2d(672, 112, kernel_size=(1, 1), stride=(1, 1), bias=False)
              (1): BatchNorm2d(112, eps=1e-05, momentum=0.1, affine=True, track_running_stats=True)
            )
          )
          (stochastic_depth): StochasticDepth(p=0.06875, mode=row)
        )
        (2): MBConv(
          (block): Sequential(
            (0): ConvNormActivation(
              (0): Conv2d(112, 672, kernel_size=(1, 1), stride=(1, 1), bias=False)
              (1): BatchNorm2d(672, eps=1e-05, momentum=0.1, affine=True, track_running_stats=True)
              (2): SiLU(inplace=True)
            )
            (1): ConvNormActivation(
              (0): Conv2d(672, 672, kernel_size=(3, 3), stride=(1, 1), padding=(1, 1), groups=672, bias=False)
              (1): BatchNorm2d(672, eps=1e-05, momentum=0.1, affine=True, track_running_stats=True)
              (2): SiLU(inplace=True)
            )
            (2): SqueezeExcitation(
              (avgpool): AdaptiveAvgPool2d(output_size=1)
              (fc1): Conv2d(672, 28, kernel_size=(1, 1), stride=(1, 1))
              (fc2): Conv2d(28, 672, kernel_size=(1, 1), stride=(1, 1))
              (activation): SiLU(inplace=True)
              (scale_activation): Sigmoid()
            )
            (3): ConvNormActivation(
              (0): Conv2d(672, 112, kernel_size=(1, 1), stride=(1, 1), bias=False)
              (1): BatchNorm2d(112, eps=1e-05, momentum=0.1, affine=True, track_running_stats=True)
            )
          )
          (stochastic_depth): StochasticDepth(p=0.07500000000000001, mode=row)
        )
        (3): MBConv(
          (block): Sequential(
            (0): ConvNormActivation(
              (0): Conv2d(112, 672, kernel_size=(1, 1), stride=(1, 1), bias=False)
              (1): BatchNorm2d(672, eps=1e-05, momentum=0.1, affine=True, track_running_stats=True)
              (2): SiLU(inplace=True)
            )
            (1): ConvNormActivation(
              (0): Conv2d(672, 672, kernel_size=(3, 3), stride=(1, 1), padding=(1, 1), groups=672, bias=False)
              (1): BatchNorm2d(672, eps=1e-05, momentum=0.1, affine=True, track_running_stats=True)
              (2): SiLU(inplace=True)
            )
            (2): SqueezeExcitation(
              (avgpool): AdaptiveAvgPool2d(output_size=1)
              (fc1): Conv2d(672, 28, kernel_size=(1, 1), stride=(1, 1))
              (fc2): Conv2d(28, 672, kernel_size=(1, 1), stride=(1, 1))
              (activation): SiLU(inplace=True)
              (scale_activation): Sigmoid()
            )
            (3): ConvNormActivation(
              (0): Conv2d(672, 112, kernel_size=(1, 1), stride=(1, 1), bias=False)
              (1): BatchNorm2d(112, eps=1e-05, momentum=0.1, affine=True, track_running_stats=True)
            )
          )
          (stochastic_depth): StochasticDepth(p=0.08125, mode=row)
        )
        (4): MBConv(
          (block): Sequential(
            (0): ConvNormActivation(
              (0): Conv2d(112, 672, kernel_size=(1, 1), stride=(1, 1), bias=False)
              (1): BatchNorm2d(672, eps=1e-05, momentum=0.1, affine=True, track_running_stats=True)
              (2): SiLU(inplace=True)
            )
            (1): ConvNormActivation(
              (0): Conv2d(672, 672, kernel_size=(3, 3), stride=(1, 1), padding=(1, 1), groups=672, bias=False)
              (1): BatchNorm2d(672, eps=1e-05, momentum=0.1, affine=True, track_running_stats=True)
              (2): SiLU(inplace=True)
            )
            (2): SqueezeExcitation(
              (avgpool): AdaptiveAvgPool2d(output_size=1)
              (fc1): Conv2d(672, 28, kernel_size=(1, 1), stride=(1, 1))
              (fc2): Conv2d(28, 672, kernel_size=(1, 1), stride=(1, 1))
              (activation): SiLU(inplace=True)
              (scale_activation): Sigmoid()
            )
            (3): ConvNormActivation(
              (0): Conv2d(672, 112, kernel_size=(1, 1), stride=(1, 1), bias=False)
              (1): BatchNorm2d(112, eps=1e-05, momentum=0.1, affine=True, track_running_stats=True)
            )
          )
          (stochastic_depth): StochasticDepth(p=0.08750000000000001, mode=row)
        )
        (5): MBConv(
          (block): Sequential(
            (0): ConvNormActivation(
              (0): Conv2d(112, 672, kernel_size=(1, 1), stride=(1, 1), bias=False)
              (1): BatchNorm2d(672, eps=1e-05, momentum=0.1, affine=True, track_running_stats=True)
              (2): SiLU(inplace=True)
            )
            (1): ConvNormActivation(
              (0): Conv2d(672, 672, kernel_size=(3, 3), stride=(1, 1), padding=(1, 1), groups=672, bias=False)
              (1): BatchNorm2d(672, eps=1e-05, momentum=0.1, affine=True, track_running_stats=True)
              (2): SiLU(inplace=True)
            )
            (2): SqueezeExcitation(
              (avgpool): AdaptiveAvgPool2d(output_size=1)
              (fc1): Conv2d(672, 28, kernel_size=(1, 1), stride=(1, 1))
              (fc2): Conv2d(28, 672, kernel_size=(1, 1), stride=(1, 1))
              (activation): SiLU(inplace=True)
              (scale_activation): Sigmoid()
            )
            (3): ConvNormActivation(
              (0): Conv2d(672, 112, kernel_size=(1, 1), stride=(1, 1), bias=False)
              (1): BatchNorm2d(112, eps=1e-05, momentum=0.1, affine=True, track_running_stats=True)
            )
          )
          (stochastic_depth): StochasticDepth(p=0.09375, mode=row)
        )
      )
      (5): Sequential(
        (0): MBConv(
          (block): Sequential(
            (0): ConvNormActivation(
              (0): Conv2d(112, 672, kernel_size=(1, 1), stride=(1, 1), bias=False)
              (1): BatchNorm2d(672, eps=1e-05, momentum=0.1, affine=True, track_running_stats=True)
              (2): SiLU(inplace=True)
            )
            (1): ConvNormActivation(
              (0): Conv2d(672, 672, kernel_size=(5, 5), stride=(1, 1), padding=(2, 2), groups=672, bias=False)
              (1): BatchNorm2d(672, eps=1e-05, momentum=0.1, affine=True, track_running_stats=True)
              (2): SiLU(inplace=True)
            )
            (2): SqueezeExcitation(
              (avgpool): AdaptiveAvgPool2d(output_size=1)
              (fc1): Conv2d(672, 28, kernel_size=(1, 1), stride=(1, 1))
              (fc2): Conv2d(28, 672, kernel_size=(1, 1), stride=(1, 1))
              (activation): SiLU(inplace=True)
              (scale_activation): Sigmoid()
            )
            (3): ConvNormActivation(
              (0): Conv2d(672, 160, kernel_size=(1, 1), stride=(1, 1), bias=False)
              (1): BatchNorm2d(160, eps=1e-05, momentum=0.1, affine=True, track_running_stats=True)
            )
          )
          (stochastic_depth): StochasticDepth(p=0.1, mode=row)
        )
        (1): MBConv(
          (block): Sequential(
            (0): ConvNormActivation(
              (0): Conv2d(160, 960, kernel_size=(1, 1), stride=(1, 1), bias=False)
              (1): BatchNorm2d(960, eps=1e-05, momentum=0.1, affine=True, track_running_stats=True)
              (2): SiLU(inplace=True)
            )
            (1): ConvNormActivation(
              (0): Conv2d(960, 960, kernel_size=(5, 5), stride=(1, 1), padding=(2, 2), groups=960, bias=False)
              (1): BatchNorm2d(960, eps=1e-05, momentum=0.1, affine=True, track_running_stats=True)
              (2): SiLU(inplace=True)
            )
            (2): SqueezeExcitation(
              (avgpool): AdaptiveAvgPool2d(output_size=1)
              (fc1): Conv2d(960, 40, kernel_size=(1, 1), stride=(1, 1))
              (fc2): Conv2d(40, 960, kernel_size=(1, 1), stride=(1, 1))
              (activation): SiLU(inplace=True)
              (scale_activation): Sigmoid()
            )
            (3): ConvNormActivation(
              (0): Conv2d(960, 160, kernel_size=(1, 1), stride=(1, 1), bias=False)
              (1): BatchNorm2d(160, eps=1e-05, momentum=0.1, affine=True, track_running_stats=True)
            )
          )
          (stochastic_depth): StochasticDepth(p=0.10625000000000001, mode=row)
        )
        (2): MBConv(
          (block): Sequential(
            (0): ConvNormActivation(
              (0): Conv2d(160, 960, kernel_size=(1, 1), stride=(1, 1), bias=False)
              (1): BatchNorm2d(960, eps=1e-05, momentum=0.1, affine=True, track_running_stats=True)
              (2): SiLU(inplace=True)
            )
            (1): ConvNormActivation(
              (0): Conv2d(960, 960, kernel_size=(5, 5), stride=(1, 1), padding=(2, 2), groups=960, bias=False)
              (1): BatchNorm2d(960, eps=1e-05, momentum=0.1, affine=True, track_running_stats=True)
              (2): SiLU(inplace=True)
            )
            (2): SqueezeExcitation(
              (avgpool): AdaptiveAvgPool2d(output_size=1)
              (fc1): Conv2d(960, 40, kernel_size=(1, 1), stride=(1, 1))
              (fc2): Conv2d(40, 960, kernel_size=(1, 1), stride=(1, 1))
              (activation): SiLU(inplace=True)
              (scale_activation): Sigmoid()
            )
            (3): ConvNormActivation(
              (0): Conv2d(960, 160, kernel_size=(1, 1), stride=(1, 1), bias=False)
              (1): BatchNorm2d(160, eps=1e-05, momentum=0.1, affine=True, track_running_stats=True)
            )
          )
          (stochastic_depth): StochasticDepth(p=0.1125, mode=row)
        )
        (3): MBConv(
          (block): Sequential(
            (0): ConvNormActivation(
              (0): Conv2d(160, 960, kernel_size=(1, 1), stride=(1, 1), bias=False)
              (1): BatchNorm2d(960, eps=1e-05, momentum=0.1, affine=True, track_running_stats=True)
              (2): SiLU(inplace=True)
            )
            (1): ConvNormActivation(
              (0): Conv2d(960, 960, kernel_size=(5, 5), stride=(1, 1), padding=(2, 2), groups=960, bias=False)
              (1): BatchNorm2d(960, eps=1e-05, momentum=0.1, affine=True, track_running_stats=True)
              (2): SiLU(inplace=True)
            )
            (2): SqueezeExcitation(
              (avgpool): AdaptiveAvgPool2d(output_size=1)
              (fc1): Conv2d(960, 40, kernel_size=(1, 1), stride=(1, 1))
              (fc2): Conv2d(40, 960, kernel_size=(1, 1), stride=(1, 1))
              (activation): SiLU(inplace=True)
              (scale_activation): Sigmoid()
            )
            (3): ConvNormActivation(
              (0): Conv2d(960, 160, kernel_size=(1, 1), stride=(1, 1), bias=False)
              (1): BatchNorm2d(160, eps=1e-05, momentum=0.1, affine=True, track_running_stats=True)
            )
          )
          (stochastic_depth): StochasticDepth(p=0.11875000000000001, mode=row)
        )
        (4): MBConv(
          (block): Sequential(
            (0): ConvNormActivation(
              (0): Conv2d(160, 960, kernel_size=(1, 1), stride=(1, 1), bias=False)
              (1): BatchNorm2d(960, eps=1e-05, momentum=0.1, affine=True, track_running_stats=True)
              (2): SiLU(inplace=True)
            )
            (1): ConvNormActivation(
              (0): Conv2d(960, 960, kernel_size=(5, 5), stride=(1, 1), padding=(2, 2), groups=960, bias=False)
              (1): BatchNorm2d(960, eps=1e-05, momentum=0.1, affine=True, track_running_stats=True)
              (2): SiLU(inplace=True)
            )
            (2): SqueezeExcitation(
              (avgpool): AdaptiveAvgPool2d(output_size=1)
              (fc1): Conv2d(960, 40, kernel_size=(1, 1), stride=(1, 1))
              (fc2): Conv2d(40, 960, kernel_size=(1, 1), stride=(1, 1))
              (activation): SiLU(inplace=True)
              (scale_activation): Sigmoid()
            )
            (3): ConvNormActivation(
              (0): Conv2d(960, 160, kernel_size=(1, 1), stride=(1, 1), bias=False)
              (1): BatchNorm2d(160, eps=1e-05, momentum=0.1, affine=True, track_running_stats=True)
            )
          )
          (stochastic_depth): StochasticDepth(p=0.125, mode=row)
        )
        (5): MBConv(
          (block): Sequential(
            (0): ConvNormActivation(
              (0): Conv2d(160, 960, kernel_size=(1, 1), stride=(1, 1), bias=False)
              (1): BatchNorm2d(960, eps=1e-05, momentum=0.1, affine=True, track_running_stats=True)
              (2): SiLU(inplace=True)
            )
            (1): ConvNormActivation(
              (0): Conv2d(960, 960, kernel_size=(5, 5), stride=(1, 1), padding=(2, 2), groups=960, bias=False)
              (1): BatchNorm2d(960, eps=1e-05, momentum=0.1, affine=True, track_running_stats=True)
              (2): SiLU(inplace=True)
            )
            (2): SqueezeExcitation(
              (avgpool): AdaptiveAvgPool2d(output_size=1)
              (fc1): Conv2d(960, 40, kernel_size=(1, 1), stride=(1, 1))
              (fc2): Conv2d(40, 960, kernel_size=(1, 1), stride=(1, 1))
              (activation): SiLU(inplace=True)
              (scale_activation): Sigmoid()
            )
            (3): ConvNormActivation(
              (0): Conv2d(960, 160, kernel_size=(1, 1), stride=(1, 1), bias=False)
              (1): BatchNorm2d(160, eps=1e-05, momentum=0.1, affine=True, track_running_stats=True)
            )
          )
          (stochastic_depth): StochasticDepth(p=0.13125, mode=row)
        )
      )
      (6): Sequential(
        (0): MBConv(
          (block): Sequential(
            (0): ConvNormActivation(
              (0): Conv2d(160, 960, kernel_size=(1, 1), stride=(1, 1), bias=False)
              (1): BatchNorm2d(960, eps=1e-05, momentum=0.1, affine=True, track_running_stats=True)
              (2): SiLU(inplace=True)
            )
            (1): ConvNormActivation(
              (0): Conv2d(960, 960, kernel_size=(5, 5), stride=(2, 2), padding=(2, 2), groups=960, bias=False)
              (1): BatchNorm2d(960, eps=1e-05, momentum=0.1, affine=True, track_running_stats=True)
              (2): SiLU(inplace=True)
            )
            (2): SqueezeExcitation(
              (avgpool): AdaptiveAvgPool2d(output_size=1)
              (fc1): Conv2d(960, 40, kernel_size=(1, 1), stride=(1, 1))
              (fc2): Conv2d(40, 960, kernel_size=(1, 1), stride=(1, 1))
              (activation): SiLU(inplace=True)
              (scale_activation): Sigmoid()
            )
            (3): ConvNormActivation(
              (0): Conv2d(960, 272, kernel_size=(1, 1), stride=(1, 1), bias=False)
              (1): BatchNorm2d(272, eps=1e-05, momentum=0.1, affine=True, track_running_stats=True)
            )
          )
          (stochastic_depth): StochasticDepth(p=0.1375, mode=row)
        )
        (1): MBConv(
          (block): Sequential(
            (0): ConvNormActivation(
              (0): Conv2d(272, 1632, kernel_size=(1, 1), stride=(1, 1), bias=False)
              (1): BatchNorm2d(1632, eps=1e-05, momentum=0.1, affine=True, track_running_stats=True)
              (2): SiLU(inplace=True)
            )
            (1): ConvNormActivation(
              (0): Conv2d(1632, 1632, kernel_size=(5, 5), stride=(1, 1), padding=(2, 2), groups=1632, bias=False)
              (1): BatchNorm2d(1632, eps=1e-05, momentum=0.1, affine=True, track_running_stats=True)
              (2): SiLU(inplace=True)
            )
            (2): SqueezeExcitation(
              (avgpool): AdaptiveAvgPool2d(output_size=1)
              (fc1): Conv2d(1632, 68, kernel_size=(1, 1), stride=(1, 1))
              (fc2): Conv2d(68, 1632, kernel_size=(1, 1), stride=(1, 1))
              (activation): SiLU(inplace=True)
              (scale_activation): Sigmoid()
            )
            (3): ConvNormActivation(
              (0): Conv2d(1632, 272, kernel_size=(1, 1), stride=(1, 1), bias=False)
              (1): BatchNorm2d(272, eps=1e-05, momentum=0.1, affine=True, track_running_stats=True)
            )
          )
          (stochastic_depth): StochasticDepth(p=0.14375000000000002, mode=row)
        )
        (2): MBConv(
          (block): Sequential(
            (0): ConvNormActivation(
              (0): Conv2d(272, 1632, kernel_size=(1, 1), stride=(1, 1), bias=False)
              (1): BatchNorm2d(1632, eps=1e-05, momentum=0.1, affine=True, track_running_stats=True)
              (2): SiLU(inplace=True)
            )
            (1): ConvNormActivation(
              (0): Conv2d(1632, 1632, kernel_size=(5, 5), stride=(1, 1), padding=(2, 2), groups=1632, bias=False)
              (1): BatchNorm2d(1632, eps=1e-05, momentum=0.1, affine=True, track_running_stats=True)
              (2): SiLU(inplace=True)
            )
            (2): SqueezeExcitation(
              (avgpool): AdaptiveAvgPool2d(output_size=1)
              (fc1): Conv2d(1632, 68, kernel_size=(1, 1), stride=(1, 1))
              (fc2): Conv2d(68, 1632, kernel_size=(1, 1), stride=(1, 1))
              (activation): SiLU(inplace=True)
              (scale_activation): Sigmoid()
            )
            (3): ConvNormActivation(
              (0): Conv2d(1632, 272, kernel_size=(1, 1), stride=(1, 1), bias=False)
              (1): BatchNorm2d(272, eps=1e-05, momentum=0.1, affine=True, track_running_stats=True)
            )
          )
          (stochastic_depth): StochasticDepth(p=0.15000000000000002, mode=row)
        )
        (3): MBConv(
          (block): Sequential(
            (0): ConvNormActivation(
              (0): Conv2d(272, 1632, kernel_size=(1, 1), stride=(1, 1), bias=False)
              (1): BatchNorm2d(1632, eps=1e-05, momentum=0.1, affine=True, track_running_stats=True)
              (2): SiLU(inplace=True)
            )
            (1): ConvNormActivation(
              (0): Conv2d(1632, 1632, kernel_size=(5, 5), stride=(1, 1), padding=(2, 2), groups=1632, bias=False)
              (1): BatchNorm2d(1632, eps=1e-05, momentum=0.1, affine=True, track_running_stats=True)
              (2): SiLU(inplace=True)
            )
            (2): SqueezeExcitation(
              (avgpool): AdaptiveAvgPool2d(output_size=1)
              (fc1): Conv2d(1632, 68, kernel_size=(1, 1), stride=(1, 1))
              (fc2): Conv2d(68, 1632, kernel_size=(1, 1), stride=(1, 1))
              (activation): SiLU(inplace=True)
              (scale_activation): Sigmoid()
            )
            (3): ConvNormActivation(
              (0): Conv2d(1632, 272, kernel_size=(1, 1), stride=(1, 1), bias=False)
              (1): BatchNorm2d(272, eps=1e-05, momentum=0.1, affine=True, track_running_stats=True)
            )
          )
          (stochastic_depth): StochasticDepth(p=0.15625, mode=row)
        )
        (4): MBConv(
          (block): Sequential(
            (0): ConvNormActivation(
              (0): Conv2d(272, 1632, kernel_size=(1, 1), stride=(1, 1), bias=False)
              (1): BatchNorm2d(1632, eps=1e-05, momentum=0.1, affine=True, track_running_stats=True)
              (2): SiLU(inplace=True)
            )
            (1): ConvNormActivation(
              (0): Conv2d(1632, 1632, kernel_size=(5, 5), stride=(1, 1), padding=(2, 2), groups=1632, bias=False)
              (1): BatchNorm2d(1632, eps=1e-05, momentum=0.1, affine=True, track_running_stats=True)
              (2): SiLU(inplace=True)
            )
            (2): SqueezeExcitation(
              (avgpool): AdaptiveAvgPool2d(output_size=1)
              (fc1): Conv2d(1632, 68, kernel_size=(1, 1), stride=(1, 1))
              (fc2): Conv2d(68, 1632, kernel_size=(1, 1), stride=(1, 1))
              (activation): SiLU(inplace=True)
              (scale_activation): Sigmoid()
            )
            (3): ConvNormActivation(
              (0): Conv2d(1632, 272, kernel_size=(1, 1), stride=(1, 1), bias=False)
              (1): BatchNorm2d(272, eps=1e-05, momentum=0.1, affine=True, track_running_stats=True)
            )
          )
          (stochastic_depth): StochasticDepth(p=0.1625, mode=row)
        )
        (5): MBConv(
          (block): Sequential(
            (0): ConvNormActivation(
              (0): Conv2d(272, 1632, kernel_size=(1, 1), stride=(1, 1), bias=False)
              (1): BatchNorm2d(1632, eps=1e-05, momentum=0.1, affine=True, track_running_stats=True)
              (2): SiLU(inplace=True)
            )
            (1): ConvNormActivation(
              (0): Conv2d(1632, 1632, kernel_size=(5, 5), stride=(1, 1), padding=(2, 2), groups=1632, bias=False)
              (1): BatchNorm2d(1632, eps=1e-05, momentum=0.1, affine=True, track_running_stats=True)
              (2): SiLU(inplace=True)
            )
            (2): SqueezeExcitation(
              (avgpool): AdaptiveAvgPool2d(output_size=1)
              (fc1): Conv2d(1632, 68, kernel_size=(1, 1), stride=(1, 1))
              (fc2): Conv2d(68, 1632, kernel_size=(1, 1), stride=(1, 1))
              (activation): SiLU(inplace=True)
              (scale_activation): Sigmoid()
            )
            (3): ConvNormActivation(
              (0): Conv2d(1632, 272, kernel_size=(1, 1), stride=(1, 1), bias=False)
              (1): BatchNorm2d(272, eps=1e-05, momentum=0.1, affine=True, track_running_stats=True)
            )
          )
          (stochastic_depth): StochasticDepth(p=0.16875, mode=row)
        )
        (6): MBConv(
          (block): Sequential(
            (0): ConvNormActivation(
              (0): Conv2d(272, 1632, kernel_size=(1, 1), stride=(1, 1), bias=False)
              (1): BatchNorm2d(1632, eps=1e-05, momentum=0.1, affine=True, track_running_stats=True)
              (2): SiLU(inplace=True)
            )
            (1): ConvNormActivation(
              (0): Conv2d(1632, 1632, kernel_size=(5, 5), stride=(1, 1), padding=(2, 2), groups=1632, bias=False)
              (1): BatchNorm2d(1632, eps=1e-05, momentum=0.1, affine=True, track_running_stats=True)
              (2): SiLU(inplace=True)
            )
            (2): SqueezeExcitation(
              (avgpool): AdaptiveAvgPool2d(output_size=1)
              (fc1): Conv2d(1632, 68, kernel_size=(1, 1), stride=(1, 1))
              (fc2): Conv2d(68, 1632, kernel_size=(1, 1), stride=(1, 1))
              (activation): SiLU(inplace=True)
              (scale_activation): Sigmoid()
            )
            (3): ConvNormActivation(
              (0): Conv2d(1632, 272, kernel_size=(1, 1), stride=(1, 1), bias=False)
              (1): BatchNorm2d(272, eps=1e-05, momentum=0.1, affine=True, track_running_stats=True)
            )
          )
          (stochastic_depth): StochasticDepth(p=0.17500000000000002, mode=row)
        )
        (7): MBConv(
          (block): Sequential(
            (0): ConvNormActivation(
              (0): Conv2d(272, 1632, kernel_size=(1, 1), stride=(1, 1), bias=False)
              (1): BatchNorm2d(1632, eps=1e-05, momentum=0.1, affine=True, track_running_stats=True)
              (2): SiLU(inplace=True)
            )
            (1): ConvNormActivation(
              (0): Conv2d(1632, 1632, kernel_size=(5, 5), stride=(1, 1), padding=(2, 2), groups=1632, bias=False)
              (1): BatchNorm2d(1632, eps=1e-05, momentum=0.1, affine=True, track_running_stats=True)
              (2): SiLU(inplace=True)
            )
            (2): SqueezeExcitation(
              (avgpool): AdaptiveAvgPool2d(output_size=1)
              (fc1): Conv2d(1632, 68, kernel_size=(1, 1), stride=(1, 1))
              (fc2): Conv2d(68, 1632, kernel_size=(1, 1), stride=(1, 1))
              (activation): SiLU(inplace=True)
              (scale_activation): Sigmoid()
            )
            (3): ConvNormActivation(
              (0): Conv2d(1632, 272, kernel_size=(1, 1), stride=(1, 1), bias=False)
              (1): BatchNorm2d(272, eps=1e-05, momentum=0.1, affine=True, track_running_stats=True)
            )
          )
          (stochastic_depth): StochasticDepth(p=0.18125000000000002, mode=row)
        )
      )
      (7): Sequential(
        (0): MBConv(
          (block): Sequential(
            (0): ConvNormActivation(
              (0): Conv2d(272, 1632, kernel_size=(1, 1), stride=(1, 1), bias=False)
              (1): BatchNorm2d(1632, eps=1e-05, momentum=0.1, affine=True, track_running_stats=True)
              (2): SiLU(inplace=True)
            )
            (1): ConvNormActivation(
              (0): Conv2d(1632, 1632, kernel_size=(3, 3), stride=(1, 1), padding=(1, 1), groups=1632, bias=False)
              (1): BatchNorm2d(1632, eps=1e-05, momentum=0.1, affine=True, track_running_stats=True)
              (2): SiLU(inplace=True)
            )
            (2): SqueezeExcitation(
              (avgpool): AdaptiveAvgPool2d(output_size=1)
              (fc1): Conv2d(1632, 68, kernel_size=(1, 1), stride=(1, 1))
              (fc2): Conv2d(68, 1632, kernel_size=(1, 1), stride=(1, 1))
              (activation): SiLU(inplace=True)
              (scale_activation): Sigmoid()
            )
            (3): ConvNormActivation(
              (0): Conv2d(1632, 448, kernel_size=(1, 1), stride=(1, 1), bias=False)
              (1): BatchNorm2d(448, eps=1e-05, momentum=0.1, affine=True, track_running_stats=True)
            )
          )
          (stochastic_depth): StochasticDepth(p=0.1875, mode=row)
        )
        (1): MBConv(
          (block): Sequential(
            (0): ConvNormActivation(
              (0): Conv2d(448, 2688, kernel_size=(1, 1), stride=(1, 1), bias=False)
              (1): BatchNorm2d(2688, eps=1e-05, momentum=0.1, affine=True, track_running_stats=True)
              (2): SiLU(inplace=True)
            )
            (1): ConvNormActivation(
              (0): Conv2d(2688, 2688, kernel_size=(3, 3), stride=(1, 1), padding=(1, 1), groups=2688, bias=False)
              (1): BatchNorm2d(2688, eps=1e-05, momentum=0.1, affine=True, track_running_stats=True)
              (2): SiLU(inplace=True)
            )
            (2): SqueezeExcitation(
              (avgpool): AdaptiveAvgPool2d(output_size=1)
              (fc1): Conv2d(2688, 112, kernel_size=(1, 1), stride=(1, 1))
              (fc2): Conv2d(112, 2688, kernel_size=(1, 1), stride=(1, 1))
              (activation): SiLU(inplace=True)
              (scale_activation): Sigmoid()
            )
            (3): ConvNormActivation(
              (0): Conv2d(2688, 448, kernel_size=(1, 1), stride=(1, 1), bias=False)
              (1): BatchNorm2d(448, eps=1e-05, momentum=0.1, affine=True, track_running_stats=True)
            )
          )
          (stochastic_depth): StochasticDepth(p=0.19375, mode=row)
        )
      )
      (8): ConvNormActivation(
        (0): Conv2d(448, 1792, kernel_size=(1, 1), stride=(1, 1), bias=False)
        (1): BatchNorm2d(1792, eps=1e-05, momentum=0.1, affine=True, track_running_stats=True)
        (2): SiLU(inplace=True)
      )
    )
    (avgpool): AdaptiveAvgPool2d(output_size=1)
    (classifier): Sequential(
      (0): Dropout(p=0.4, inplace=True)
      (1): Linear(in_features=1792, out_features=11, bias=True)
    )
  )
)
Epoch(001/300) train_loss 2.32497 | train_acc 0.19089 | valid_loss 2.48682 | valid_acc 0.22574
[ Valid | 001/300 ] loss = 2.48682, acc = 0.22574 -> best
Best model found at epoch 0, saving model
Epoch(002/300) train_loss 2.10063 | train_acc 0.26546 | valid_loss 2.06278 | valid_acc 0.28652
[ Valid | 002/300 ] loss = 2.06278, acc = 0.28652 -> best
…
